Loading data...
Preprocessing...
Splitting...
Setting optimizer...
Creating the network...

Network summary:
_________________________________________________________________
Layer (type)                 Output Shape              Param #   
=================================================================
dense_1 (Dense)              (None, 300)               235500    
_________________________________________________________________
dropout_1 (Dropout)          (None, 300)               0         
_________________________________________________________________
dense_2 (Dense)              (None, 100)               30100     
_________________________________________________________________
dropout_2 (Dropout)          (None, 100)               0         
_________________________________________________________________
dense_3 (Dense)              (None, 100)               10100     
_________________________________________________________________
dropout_3 (Dropout)          (None, 100)               0         
_________________________________________________________________
dense_4 (Dense)              (None, 100)               10100     
_________________________________________________________________
dropout_4 (Dropout)          (None, 100)               0         
_________________________________________________________________
dense_5 (Dense)              (None, 200)               20200     
_________________________________________________________________
dropout_5 (Dropout)          (None, 200)               0         
_________________________________________________________________
Output_Layer (Dense)         (None, 10)                2010      
=================================================================
Total params: 308,010
Trainable params: 308,010
Non-trainable params: 0
_________________________________________________________________
None
Compiling...
Fitting...
Train on 37800 samples, validate on 4200 samples
Epoch 1/30
 - 37s - loss: 1.6960 - acc: 0.3778 - val_loss: 1.0443 - val_acc: 0.6312
Epoch 2/30
 - 37s - loss: 1.1268 - acc: 0.6129 - val_loss: 0.8718 - val_acc: 0.7062
…
