Loading data...
Preprocessing...
Splitting...
Setting optimizer...
Creating the network...

Network summary:
_________________________________________________________________
Layer (type)                 Output Shape              Param #   
=================================================================
conv2d_1 (Conv2D)            (None, 28, 28, 32)        832       
_________________________________________________________________
conv2d_2 (Conv2D)            (None, 28, 28, 32)        25632     
_________________________________________________________________
max_pooling2d_1 (MaxPooling2 (None, 14, 14, 32)        0         
_________________________________________________________________
dropout_1 (Dropout)          (None, 14, 14, 32)        0         
_________________________________________________________________
flatten_1 (Flatten)          (None, 6272)              0         
_________________________________________________________________
dense_1 (Dense)              (None, 128)               802944    
_________________________________________________________________
dropout_2 (Dropout)          (None, 128)               0         
_________________________________________________________________
Output_Layer (Dense)         (None, 10)                1290      
=================================================================
Total params: 830,698
Trainable params: 830,698
Non-trainable params: 0
_________________________________________________________________
None
Compiling...
Augmenting...
Fitting...
Epoch 1/30
 - 894s - loss: 0.5147 - acc: 0.8356 - val_loss: 0.0750 - val_acc: 0.9769
Epoch 2/30
 - 915s - loss: 0.2041 - acc: 0.9384 - val_loss: 0.0530 - val_acc: 0.9860
…
