Loading data...
Preprocessing...
Splitting...
Creating the model...
Model summary:
_________________________________________________________________
Layer (type)                 Output Shape              Param #   
=================================================================
dense_1 (Dense)              (None, 300)               235500    
_________________________________________________________________
dropout_1 (Dropout)          (None, 300)               0         
_________________________________________________________________
dense_2 (Dense)              (None, 100)               30100     
_________________________________________________________________
dropout_2 (Dropout)          (None, 100)               0         
_________________________________________________________________
dense_3 (Dense)              (None, 100)               10100     
_________________________________________________________________
dropout_3 (Dropout)          (None, 100)               0         
_________________________________________________________________
dense_4 (Dense)              (None, 100)               10100     
_________________________________________________________________
dropout_4 (Dropout)          (None, 100)               0         
_________________________________________________________________
dense_5 (Dense)              (None, 50)                5050      
_________________________________________________________________
dropout_5 (Dropout)          (None, 50)                0         
_________________________________________________________________
Output_Layer (Dense)         (None, 10)                510       
=================================================================
Total params: 291,360
Trainable params: 291,360
Non-trainable params: 0
_________________________________________________________________
None
Compiling...
Fitting...
Train on 37800 samples, validate on 4200 samples
Epoch 1/30
 - 18s - loss: 0.7236 - acc: 0.7707 - val_loss: 0.2201 - val_acc: 0.9398
Epoch 2/30
 - 17s - loss: 0.2860 - acc: 0.9263 - val_loss: 0.1726 - val_acc: 0.9526
…
